sp_model/keypoint_classifier.tflite (tflite, 6616 bytes, 6 tensors)

sequential_1/dense_5/BiasAdd/ReadVariableOp f4 [5]
00000000: 9600 423d 0973 08bc 8243 e5bc db77 8bbc
00000010: 4268 76bd
0.04736384 -0.008328208 -0.027986292 -0.017024925 -0.06015802

sequential_1/dense_4/BiasAdd/ReadVariableOp f4 [10]
00000000: 495a 10bd 15c2 0b3e 6495 713e f042 8b3e
00000010: 8644 393d aa20 a03d 2a72 c83e 90ec f03e
00000020: 8fd9 8b3e 8ac7 ea3e
-0.035242353 0.13648255 0.23592144 0.27199507 0.045231365 0.0781873 0.391496 0.47055483
0.27314422 0.4585536

sequential_1/dense_3/BiasAdd/ReadVariableOp f4 [20]
00000000: 7143 dc3d 5190 01be 61fa 133e 594b 113e
00000010: 7811 853d 01cd 203e 5ded 22be 3b11 f0bd
00000020: 4a79 c03d 4a42 93bd e8f5 e93d 83e8 cfbe
00000030: 4352 3cbd 3bff 4fbd c2b9 123e eee1 0d3e
00000040: fb0d d03d 3966 9f3d e973 073e 6bef 9e3d
0.10755051 -0.12652709 0.1445098 0.14188899 0.064974725 0.15703203 -0.1591086 -0.117220365
0.09398134 -0.07190378 0.11423856 -0.4060708 -0.04597689 -0.050780516 0.14328673 0.13855717
0.101589166 0.07783169 0.1322781 0.07760509

sequential_1/dense_3/MatMul f4 [20, 42]
00000000: 3894 79bd 2429 443e c113 ca3e 04aa 88be
00000010: 46e5 4f3e bf1c 72bd 88e2 f63e 15ba a2be
00000020: a098 713f 9169 c2be a767 293e a305 95be
00000030: 1725 52be 60ca 0bbe 0ed9 a6be 5365 abbc
00000040: 3bba 603d 5d3a 293d 1f3c 0abe 08fb 87be
00000050: 8c33 8cbe 89d6 65be 78b0 debb af9b 893d
00000060: 6ff8 ccbe 369c 013c 193d 48be 3fee 5abd
00000070: 3e89 09be 38cc 99bd ea4d 0abe 31e2 923e
00000080: f9b7 90bd f632 1b3f fe17 24be 7f4a 09be
00000090: 56e9 b2bd 83b0 8ebd 12ce adbe d465 623d
000000a0: 468a c4be cd13 e23e 6c40 653e 08e8 913d
000000b0: d59d adbe 2b58 1d3e 1acc f1be 60e4 7cba
000000c0: 9fe3 bebe 530f 0b3d f4d0 a1be a0d9 6f3e
000000d0: 4444 2ebe 63e4 853d 74f1 aebe 8f1e f73c
000000e0: acf8 93be 8789 b63d 39f5 65be 670e 96bd
000000f0: 60d6 72be 77f0 873e a4f9 13be f48f 94bd
00000100: cd80 d73d ebcc aebd bff1 6dbe 5a12 10bc
00000110: 6ddc f73d af49 893e 0c9f 9f3d a65e 5fbe
00000120: a319 44bd 5fd0 09bf 965f adbd 65a1 ffbe
00000130: ee91 983d 202a 213e e2c7 6a3d 7423 ac3d
00000140: 7977 8f3d 00f5 b9be 9bdc 113f acb2 03bf
00000150: 1a93 31be 721e 8a3e 563a a5be c8bf 03be
00000160: b911 0ebf b990 68be 6ab9 03bf 41e0 20be
00000170: 7d82 2ebe b207 69bd d640 edbd 2f29 27be
00000180: 3388 aebe 2b69 843d 6b43 2dbe 8ffd 72be
00000190: 953a 08be 3ab4 1b3b 456c 87be accc 44be
000001a0: 7c6b d9be 2fd9 45be ca43 9cbe 52fd acbd
000001b0: b1cd f9be 6479 b63b 2bed 7ebe 118e 033e
000001c0: 22ea d73d e684 0e3e b4a7 9bbe 92ea 913e
000001d0: 7e46 acbe e4dc d03e 8518 723d c2c9 883e
000001e0: bb59 b8bc fc4b 503e 009d 8fbe 37d5 c83e
000001f0: f077 6dbe 69b4 0c3f 8081 3b3d 76b1 8ebe
00000200: bd3b 843e 937e ff3d f528 b83e 5e5b b6be
00000210: 7405 24bb 19c7 a8be 5808 59be 036f eebe
00000220: 8512 123d 79ee 3ebe fc56 483e 558d d0be
00000230: bac9 353e 64c2 4abe d8b3 b83e 7b3b c7be
00000240: 6293 053e ce1d c8be 2028 d83d 47fe 97be
00000250: 3db5 8b3e b5f3 69be 9065 5f3e 21b4 b0bd
00000260: 9803 66bd 72df cabe ad18 aabd 6ca6 863d
00000270: 17f0 c93c e391 9b3d f20c 273d 0d9a d53d
00000280: 432b 8f3e 4ea4 babe afe9 89be 7e58 a6be
00000290: 9ecd a73d 1845 14be 0f2e b4be 1a44 483e
000002a0: e8da 93bd 10a0 163d bda2 89be 5a5c 93bd
000002b0: 64e8 0cbf fc74 2dbe 0641 fabe 7cab 913d
000002c0: 068d 09bf 2ae3 22be 22a6 00bf 9749 83bc
000002d0: 4eb0 49be d20b e23d dc37 74be f719 a0be
000002e0: 490e 6fba da8d 8fbe 6bb4 183e 1c1a 04be
000002f0: 7eb8 c8bd 134f 03bc d068 8f3b 0271 adbe
00000300: 0241 12bc 2e82 97bc 8702 d03e d5e8 333e
00000310: 7e69 4a3d 57c2 aa3d 6c5f d13e 892d a7be
00000320: 753e 0b3f 6e3b 04bf a063 0d3f 5c29 c1bb
00000330: 2ee2 f33e de2d 33be 2faa 0d3f 7276 05be
00000340: c4a0 3d3f 7dc5 18bf 30e0 983d 173c 81be
00000350: 2d91 bf3e 1527 7b3d 44b3 bb3e 0d06 98be
00000360: fde3 ee3e fb33 c6bd 6c1b af3d 0e14 cfbd
00000370: 9b13 203f 7a3f 9bbe a231 663e 99e7 8cbe
00000380: 61c0 043e e589 9abe 19a6 933e 90ac 7fbe
00000390: 3510 883e fc50 e2be 35a8 0abe 0b14 ddbd
000003a0: ca6d 5d3e 2f41 c3be 31dc f13d fff4 04be
000003b0: f5d0 91be 88d9 d1bd 1a92 553e 0601 05bf
000003c0: bc42 20bd 3ee6 35bd 405a 0a3d c631 f3be
000003d0: 870d 9fbe 8594 e2be 9d18 97bb 70b4 d8be
000003e0: 6189 2fbe a1f4 93be 6bff 2ebd c44b 2fbe
000003f0: 886a 513e 3027 043d 95b1 1fbe 4122 733e
-0.060932368 0.19156319 0.39468196 -0.26692212 0.20302305 -0.059109446 0.48219705 -0.31782594
0.9437351 -0.37971166 0.16543446 -0.29105863 -0.20521961 -0.13651419 -0.32587475 -0.020922339
0.054865103 0.041315425 -0.13499497 -0.2655871 -0.27383077 -0.2244512 -0.006795939 0.067191474
-0.4003329 0.007910779 -0.19554557 -0.053449865 -0.1343126 -0.07509655 -0.13506284 0.28688195
-0.0706634 0.60624635 -0.16024777 -0.13407324 -0.087359115 -0.06967261 -0.33946282 0.055272892
-0.38386744 0.44155732 0.22387856 0.071243346 -0.3390948 0.15365665 -0.4722603 -0.00096470676
-0.37283036 0.03395016 -0.3160473 0.23422861 -0.17018229 0.06537702 -0.3416859 0.030165939
-0.2890066 0.0891295 -0.22456826 -0.07326966 -0.2371459 0.26550648 -0.14450699 -0.072540194
0.10522614 -0.08535179 -0.2323675 -0.008793438 0.1210259 0.2681403 0.07794008 -0.2181345
-0.04787601 -0.53833574 -0.08465497 -0.49927822 0.07449709 0.15738726 0.05731953 0.084052
0.070052095 -0.36319733 0.5697724 -0.51444507 -0.17341271 0.26976353 -0.3227107 -0.12866127
-0.5549579 -0.22711457 -0.51454794 -0.15710546 -0.17041965 -0.056892104 -0.11584632 -0.16324304
-0.34088287 0.06465372 -0.16920249 -0.23729537 -0.13303597 0.0023758546 -0.2644979 -0.19218701
-0.42464817 -0.1932113 -0.3052047 -0.084467545 -0.48789743 0.00556867 -0.2489516 0.12847163
0.10542704 0.13917884 -0.30401385 0.28499275 -0.3364753 0.40793526 0.059105415 0.2671643
-0.022503724 0.20341486 -0.2804947 0.3922517 -0.23190284 0.54962784 0.045777798 -0.27869767
0.25826827 0.12475314 0.35968748 -0.35616583 -0.0025027664 -0.329644 -0.21194589 -0.4656907
0.035662193 -0.18645658 0.19564432 -0.40732828 0.17752734 -0.19800717 0.3607471 -0.38912567
0.13044503 -0.3908524 0.10554528 -0.29686186 0.2728671 -0.22846873 0.21816087 -0.08628107
-0.05615577 -0.396236 -0.08305488 0.06574711 0.024650617 0.07596185 0.04078383 0.104297735
0.27962694 -0.3645348 -0.269361 -0.3248939 0.08193515 -0.14479482 -0.3519139 0.19557229
-0.072194874 0.03677374 -0.26881972 -0.07195349 -0.550421 -0.16939157 -0.48877734 0.07112786
-0.5373081 -0.15906969 -0.502535 -0.016026301 -0.19696161 0.11037411 -0.23849434 -0.3126981
-0.0009119255 -0.28037912 0.14912574 -0.12900585 -0.09800814 -0.008014458 0.0043765083 -0.3387528
-0.008926632 -0.018494692 0.40626928 0.17569287 0.04941701 0.08337849 0.40893114 -0.32651928
0.54392177 -0.5165318 0.5523014 -0.005894823 0.476335 -0.17497966 0.55337805 -0.13033465
0.74073434 -0.59676343 0.07464635 -0.25241157 0.37415448 0.06131657 0.36660206 -0.29692116
0.46658316 -0.09677883 0.08550152 -0.10111247 0.62529916 -0.30321866 0.22479871 -0.27520445
0.12964012 -0.3018333 0.2883766 -0.24968171 0.26574865 -0.4420241 -0.13540728 -0.107948385
0.21623912 -0.3813567 0.11809576 -0.12984084 -0.28479734 -0.10246569 0.20856515 -0.51954687
-0.039126143 -0.04440903 0.033777475 -0.47498912 -0.31065008 -0.44253936 -0.0046110884 -0.42325163
-0.1714225 -0.28897575 -0.042724054 -0.17118746 0.20450795 0.032263935 -0.15595086 0.23743536

sequential_1/dense_4/MatMul f4 [10, 20]
00000000: a0c5 c0be f0d3 d9bd 88cd 7e3d 38bb c33d
00000010: 2bc4 0cbe 50e6 93be 726c 57be 8e3b 983e
00000020: 4d41 193f 41b5 843d e304 123f 08bf f1bd
00000030: 314f bbbe 6c74 adbe f98d ca3e 3d44 d83c
00000040: 1e6a 963e 8dd4 a6be 0723 8c3e c757 903e
00000050: 35e7 2ebf 9bee 923c 0fce 453e b881 47be
00000060: b206 953e c6a0 09be 1f2c b13d 2888 0f3e
00000070: 43a8 903e a6ad 323f 28aa d23e 63a0 15bf
00000080: 75b4 efbd dd11 82be 840a 803e 7143 34bf
00000090: a72c 773e ac63 113f 4c4e 8d3e 1886 163e
000000a0: 1264 6b3e 3da9 093e 1b46 c73e 6adb ef3c
000000b0: f855 8cbe 4fab ebbe 3d5e 56be fd3d 0f3e
000000c0: 5cc0 e43e c912 543e 7188 023f 6001 e6be
000000d0: f62a d93d 79c0 21bd 5240 353f 6f72 573e
000000e0: e03b b53e 7c7e c6be 7f93 943e d828 193f
000000f0: b3eb 2c3f f12e 7cbe bce2 d23c ba1b 383f
00000100: 0fe1 993e 1bcc 2e3f e4b1 9bbe b405 e2be
00000110: 0141 4d3e 4457 a9be a0e4 c4be 7d78 153f
00000120: 0287 8b3f 36f0 4e3f 4838 57be 8c31 f53e
00000130: ab81 12bd 68ea f23e c9fc edbe 9825 cbbe
00000140: 5684 71bd 3976 ffbd fc8d 2b3f 08fd 013e
00000150: 8116 a33c 6977 ae3d dcc8 cf3d a3c4 173d
00000160: 6cbf b33c 24fa dabd 8533 933e 7a6e f53e
00000170: c3dc 503f ea14 a33e 9ec4 0f3e e9da 1e3f
00000180: 3425 143d f38a 023d 03ca 5cbd cd52 133f
00000190: 4a78 5c3f 8e35 d83e ff2e a53e c6d8 853e
000001a0: 2de0 5d3e 4046 813d ceec 4dbe 0478 153f
000001b0: 1f26 a7be 2497 283f 0fb8 acbe 953c 3e3f
000001c0: 568f 853d cb70 133f c038 dbbe 7b0f 0a3c
000001d0: 8975 88be b2bd 95bb c71d 38bf fc91 7f3e
000001e0: f46f 423d f627 473f e910 a83e a964 65bd
000001f0: aab1 84be 6e9e aebc 005b 553f 879b 803e
00000200: 3b11 06be 7032 573e d4f4 f6bd 4f95 cfbe
00000210: 1171 02bf 25e1 aa3e e18f eb3d bca4 073f
00000220: ed5f fbbe 7b47 503e 4331 97be 34a0 e53e
00000230: 52fc 013e 9865 b43e cd93 6d3e 6612 2d3e
00000240: d516 523f 40c7 83bb daad 893d 12e7 3abe
00000250: 83d2 903e 9a5c ddbe a48d cebe 1c97 ccbe
00000260: 2bd1 36be 547e 39be fc34 03bf b079 a73e
00000270: cf7d 54be 0aa5 103f 9fe6 aebe dc9b e0be
00000280: ed81 44be 48f1 993e 4fee 41bf 3246 033f
00000290: 464f b83e cc14 f93e 081b 913e bc3e 46bf
000002a0: 8199 e0bd 612e cdbe 75d1 24be 80f9 11be
000002b0: e39e 3fbf e00f 2dbf 372b eebe 16da 66be
000002c0: 4a36 0bbf ddac b63e 54fb ecbd 38c4 c3bd
000002d0: 6ab3 a5bc f28a de3d 2837 973e dad4 da3d
000002e0: 14a0 d83d c4e1 eb3d 6acc 093c 8152 9cbe
000002f0: 1fd3 273e cc36 8dbe 086b 953d 3318 97be
00000300: 4493 afbd 09b8 27be 05f6 90be 222f 533f
00000310: 00db 8dbe bddd 4a3f 08c5 7abd cd13 b6be
-0.37650776 -0.10636127 0.06220773 0.095571935 -0.13746707 -0.28886652 -0.21037462 0.29732937
0.59865266 0.06479884 0.57038707 -0.118040144 -0.36583856 -0.33877885 0.39561442 0.026399726
0.29377836 -0.32584038 0.27370474 0.2819197 -0.68321544 0.017936042 0.19316886 -0.19483078
0.2910667 -0.13440236 0.086509936 0.14016783 0.28253374 0.69796216 0.41145444 -0.58447856
-0.11704341 -0.25404254 0.25008023 -0.7041541 0.24138127 0.5679271 0.27598798 0.1469959
0.22987393 0.13443466 0.38920674 0.02927943 -0.2740934 -0.46029136 -0.20934387 0.1398849
0.4467801 0.20710291 0.50989443 -0.44922924 0.10603897 -0.039490197 0.7080127 0.21039747
0.35397243 -0.38768375 0.2901878 0.5982795 0.6754715 -0.24627282 0.025742881 0.7191731
0.3005452 0.6828019 -0.30409157 -0.44144976 0.20044328 -0.3307439 -0.38455677 0.58386976
1.0900576 0.8083528 -0.21017563 0.47889364 -0.035768192 0.47444463 -0.46481922 -0.3967712
-0.058964096 -0.12473721 0.67013526 0.1269418 0.019908192 0.085188694 0.10145733 0.03705276
0.021941863 -0.10692242 0.28750244 0.4793585 0.81586856 0.31851894 0.14039847 0.6205278
0.036168292 0.031870794 -0.05390359 0.5754822 0.86121047 0.4222836 0.32262418 0.26141948
0.21667548 0.06312227 -0.20109865 0.58386254 -0.32646272 0.6585562 -0.33734176 0.7431119
0.0652148 0.57593983 -0.42816734 0.008426542 -0.26652172 -0.0045697326 -0.71920437 0.24958032
0.047470048 0.7779535 0.328254 -0.0560042 -0.25916797 -0.02131578 0.8334198 0.25118658
-0.1309251 0.21015334 -0.12058416 -0.405436 -0.50953776 0.33374897 0.11502052 0.5298574
-0.49096623 0.20339768 -0.2952977 0.44848788 0.12693909 0.3523376 0.23200913 0.1690155
0.8206609 -0.004021555 0.06722613 -0.18252209 0.28285608 -0.43234712 -0.40342438 -0.39959037
-0.17853229 -0.18114597 -0.5125272 0.32710028 -0.20751117 0.5650183 -0.34160325 -0.4386891
-0.19190188 0.30066895 -0.75754255 0.51278985 0.3599798 0.4864868 0.28340936 -0.77439475
-0.109667785 -0.40074447 -0.16095527 -0.14255333 -0.74851817 -0.6760235 -0.46517345 -0.2254413
-0.54379714 0.3567876 -0.115713745 -0.0955891 -0.020227153 0.108663455 0.29534268 0.106851295
0.105774075 0.11517671 0.0084105525 -0.30531695 0.1638913 -0.2758087 0.07295805 -0.2951065
-0.085730106 -0.16378798 -0.28312698 0.82493794 -0.27706146 0.79244596 -0.06122306 -0.35561982

sequential_1/dense_5/MatMul f4 [5, 10]
00000000: 791d 063e 3cba 01bf a838 2bbf eb4d b5bd
00000010: 9d01 d43d 40e7 2c3e 411c 28bd cae8 053f
00000020: 1ac1 8cbe 92f6 4a3f 0224 313f 12ae 413f
00000030: 4d59 503f ce84 84bf 2198 ad3d 6656 59be
00000040: 9710 9dbe 6955 40be 57d5 3bbf 01f6 d6be
00000050: ce67 49bf c90d 2abe 4cd2 0d3f a2c0 49bf
00000060: 0594 833e 7741 313f 5a04 503f f2e8 41bf
00000070: 4229 3cbf 5b18 a9be 3f90 15bf e123 19bf
00000080: c6ee 9dbd 4fd3 113e 8363 7a3e be8f 2f3f
00000090: caab 53bf 819b 63bf d629 2abe 88d8 b4be
000000a0: 69d0 07bf 901c 4e3e 4fda a03e 059a 06bf
000000b0: 1f3e 6bbf e057 b6bd a411 da3d 4db6 f73e
000000c0: 34eb 503f 363c dc3e
0.1309718 -0.50674796 -0.66883326 -0.08852752 0.1035187 0.1688509 -0.04104257 0.5230833
-0.27491075 0.79282486 0.6919557 0.75656235 0.8138626 -1.0353029 0.08476282 -0.21224365
-0.3067672 -0.18782581 -0.73372406 -0.4198456 -0.7867402 -0.16606821 0.5539901 -0.7880956
0.25698867 0.69240516 0.8125664 -0.7574607 -0.73500454 -0.33026394 -0.5842323 -0.5982037
-0.07711558 0.14240764 0.24452023 0.6857871 -0.82684004 -0.88909155 -0.16617522 -0.3532145
-0.53052384 0.20128083 0.31416556 -0.52578765 -0.91891664 -0.089034796 0.10647896 0.48381272
0.8160889 0.43014687
