sp_model/keypoint_classifier.tflite (tflite, 6572 bytes, 6 tensors)

sequential_1/dense_5/BiasAdd/ReadVariableOp f4 [4]
00000000: 2094 babd 856a 543e 4a46 463d a48f 6abe
-0.09110284 0.20743759 0.048406877 -0.22906357

sequential_1/dense_4/BiasAdd/ReadVariableOp f4 [10]
00000000: 222c c13e 9469 823e bf6c 1c3e fa62 c1bd
00000010: 0593 09be e4b9 363e 9a0a 0fbe 2c16 a43e
00000020: 33b1 113e a957 8b3e
0.37728983 0.25471175 0.15275858 -0.094427064 -0.1343499 0.17844349 -0.13968888 0.32048166
0.14227752 0.27215317

sequential_1/dense_3/BiasAdd/ReadVariableOp f4 [20]
00000000: 7eec 97be 4ff4 39be d857 f83d 4cd3 883e
00000010: 732b ee3d 529c a53d a484 233e 75ee 8b3d
00000020: 0237 a73e 915d 9fbe 7417 cd3d bb6b 973e
00000030: 4f40 2e3e 3047 6e3e bd9f 833e 179d 773c
00000040: 7a79 8abe 1a59 233e 8c36 823e 2b03 893e
-0.29672617 -0.18159603 0.1212613 0.26723707 0.11629381 0.08086456 0.15968567 0.068325914
0.32659155 -0.31126073 0.10014239 0.2957438 0.1701672 0.23269343 0.25707808 0.015113137
-0.27045804 0.15951958 0.2543224 0.2676023

sequential_1/dense_3/MatMul f4 [20, 42]
00000000: e0ac 6d3e 0897 853e f8ec babc 9203 06be
00000010: ef39 a03d ba0b 613e 8ebc fcbd 6a35 173e
00000020: 234c 64be ee72 9abd 1ed1 2abd 5cf0 a33d
00000030: 31c6 8f3d c6be 03bc 8ebc 3e3e 33c1 06bd
00000040: f249 44be 6b8d 43bd 8e8a 2e3e abc3 c4bd
00000050: 7dd9 5e3e e4f0 5b3d d9d3 ba3b 9a1b eebd
00000060: 9d00 383e 4267 74bc 0e74 00be 02da 11be
00000070: 868c 81bd 4444 b2be aaaf 63bd 86d0 67be
00000080: df40 df3d f777 febe cff0 40be 422c 96be
00000090: 5abd 573e 9d86 51be 627d 36be 979e c3be
000000a0: 67a8 c7bd c65e f4be 20e6 5bbd f624 873e
000000b0: 880c 963a 6840 793e 47d2 a3be 6b9f d33d
000000c0: b5ae 6c3e 84f6 a1bd 8c49 5ebd f70d 143e
000000d0: 05bb bd3d c3ff 3c3e da7e 69be e12b 93be
000000e0: 6a8c b3bb cb1e bebd 3780 503d 6da4 40be
000000f0: 17f9 0dbe ddaf a1be dd75 993e 8707 aabe
00000100: a026 f3bd 794a 11be 2237 5dbe b5a4 0abe
00000110: f1ea efbd 3dba 91be a941 22be 48dd a8be
00000120: 7f72 25bb 03c3 babe 79fa 043e 4fd5 383d
00000130: b226 163e 1ed5 77bc f058 23be 01db 01bf
00000140: f398 143e 67ac 8fbe ffba 073e 96a4 87be
00000150: f4ef 03be c90d 0abe d24c edbc 5c89 a23e
00000160: c25e c03c 8053 853e 22ee 0cbe 608e 213e
00000170: e7be fdbc 52c1 a53d 433b 733a 25d6 4c3e
00000180: e352 2d3e 594f 13be d832 08bd f783 91be
00000190: 8225 9cbd cbec ffbe efaa 88bd aac6 953e
000001a0: 200f 1fbe 9477 1b3e d1a0 143e 09ea b8be
000001b0: 6062 27be d3f9 36be 4fe4 85bd 327d 9d3e
000001c0: a134 313d b4b3 823e a7c7 1ebd 5037 eebc
000001d0: d914 1dbd 65a3 9cbe 4d8a 0bbe 343e df3e
000001e0: a644 043e 7f28 b03e b1df 5e3e 7aab 98be
000001f0: ad3c a53d c27b 37be 2a99 0dbe a778 85be
00000200: 5a3b a3be 27d0 acbe 94f8 443e ce9a adbe
00000210: 77a3 e0bd 01c7 85be 7a4a 813e f590 a9be
00000220: 1122 efba 41ed 573c 51ee 713e 3a1f a7bd
00000230: d450 123d b365 633e 5729 773c 7649 bbbd
00000240: 9f58 5dbd 8afc 86be 14c0 303d ae34 543d
00000250: ceed ed3d 9413 d23d 62bc b43c aa09 aa3e
00000260: 3b6d 34bd a4c0 10bc f0f2 e63c 4f20 d33d
00000270: efd2 033e dd79 093e e258 213e b0bb be3e
00000280: 4346 423e 0ec7 023f 4296 82be 73bc c43e
00000290: a4ad 36be 71ff 8d3e ea81 36be 211f e93e
000002a0: c295 963e 001c bc3d bc8e 793e 1216 00bf
000002b0: 487e 54bd cf4e 8abe 77fd a43e 3635 83bb
000002c0: 9c16 503e 5111 2bbe 323f 763e 9d69 83be
000002d0: 0eb6 cdbd c62c 70be 81b3 9fbe 2df4 14bd
000002e0: 0d4f 66bd e581 523c 3f59 8ebd 1a48 803e
000002f0: 010c 483d ab10 09be a870 36be d80d a03e
00000300: f10c 08be 3e6c 3bbd 2724 e1bd abd6 d5bb
00000310: 9587 aebe de91 523e fd76 abbc 0e74 913e
00000320: c7f2 5b3e 0810 003e d5f9 8b3d 4e9f 043f
00000330: c17a f0bd 0b0d ba3e 1493 04be 2197 463e
00000340: bb50 54be 51ec e23e 802f a93c 44cd c43d
00000350: 8145 583e e49f 9fbe 7368 153e 39c1 3bbd
00000360: 85a1 433e 74b6 69bd 20da 19be 66f5 14be
00000370: 2ba5 94bd bc6d 80be d3e6 edbc b94c 4c3d
00000380: 4c4f 9cbe 6f8e 2fbe 109e 71be d25c b13d
00000390: 28fd 48bd 6742 b5bd 776f c6be 06ee 7abb
000003a0: 5ed4 2dbe dbdb 863e 37c0 a43d 00f5 5c3d
000003b0: b650 0fbe 628e b33e 427b 083e c8c0 133e
000003c0: 734b c13d 895c a33e 845b 86be b4fa c0bd
000003d0: 8832 92be cce9 843e acd0 dabd 7c9d 473d
000003e0: 28fe 553d 01f9 f13e 8367 6dbe bcb0 ca3d
000003f0: 5c1d 5d3e 188e dabd c4e8 ec3d 59f3 fa3e
0.23210478 0.2609179 -0.022818074 -0.130873 0.0782355 0.2197713 -0.123406515 0.1476647
-0.22294669 -0.07541452 -0.041703336 0.08004829 0.07020224 -0.008041089 0.18626615 -0.032899093
-0.19168833 -0.04774229 0.17045042 -0.09607633 0.21762653 0.053696528 0.0057015237 -0.11626358
0.17968984 -0.014917197 -0.12544271 -0.1424332 -0.06325631 -0.34817708 -0.05558745 -0.22638139
0.10901045 -0.497009 -0.18841861 -0.2933064 0.21068326 -0.20461507 -0.17821267 -0.38206932
-0.09748917 -0.47728556 -0.05368626 0.26395386 0.0011447826 0.24340975 -0.31996366 0.10333141
0.2311352 -0.07908347 -0.05426936 0.14458452 0.09264187 0.1845694 -0.22802296 -0.28744414
-0.005479385 -0.09283217 0.050903525 -0.18812723 -0.13864551 -0.31579486 0.29972735 -0.33208868
-0.118726015 -0.14188565 -0.21603063 -0.13539393 -0.117147334 -0.284624 -0.1584536 -0.32981324
-0.0025245247 -0.36476907 0.12986173 0.045125302 0.14663199 -0.015126495 -0.15951896 -0.507248
0.1451147 -0.2806122 0.13254927 -0.26492757 -0.12884504 -0.13481821 -0.028967295 0.31745422
0.023482684 0.26040268 -0.13762715 0.15776968 -0.030974818 0.080935135 0.0009278545 0.20003565
0.1692615 -0.14385737 -0.033251613 -0.28420994 -0.076243415 -0.49985346 -0.06673228 0.2925313
-0.15533113 0.15182334 0.14514472 -0.36116055 -0.16346121 -0.17868738 -0.06537687 0.3075958
0.04326308 0.25527728 -0.038764622 -0.02907911 -0.03834996 -0.3059341 -0.13626976 0.43602145
0.12916812 0.34405896 0.21765019 -0.29818326 0.080682136 -0.17918304 -0.13827959 -0.26068613
-0.3188122 -0.33752558 0.1923545 -0.3390717 -0.109686784 -0.2612839 0.25252134 -0.33118406
-0.0018244406 0.013179124 0.23626067 -0.08160253 0.035721615 0.22206764 0.01508554 -0.09144871
-0.054039594 -0.26364547 0.04315193 0.05180805 0.11617623 0.102576405 0.022062484 0.33210498
-0.044049483 -0.008834992 0.028192014 0.10308897 0.12873434 0.13425393 0.15756562 0.3725257
0.18972115 0.51084983 -0.25505263 0.38425025 -0.17839676 0.2773395 -0.17822996 0.45531562
0.2941113 0.09185028 0.24370855 -0.50033677 -0.051878244 -0.2701325 0.32224628 -0.004004146
0.20321125 -0.16705824 0.24047545 -0.25666514 -0.1004449 -0.2345458 -0.31191638 -0.036365677
-0.056227732 0.012848352 -0.06950616 0.2505501 0.048839573 -0.13385265 -0.17816412 0.31260562
-0.13286187 -0.045757525 -0.10993224 -0.0065258346 -0.34087816 0.20563456 -0.020930761 0.28408855
0.21479331 0.12506115 0.06834761 0.5180558 -0.117421634 0.36338076 -0.12946731 0.19393589
-0.20733921 0.4432092 0.020652533 0.09609464 0.21120264 -0.31176674 0.14590625 -0.04583857
0.19104584 -0.057058766 -0.15024614 -0.14546737 -0.07258066 -0.2508372 -0.02904073 0.049877856
-0.3052925 -0.17144178 -0.23595452 0.08660282 -0.049069554 -0.08850556 -0.38756916 -0.0038288846
-0.16975543 0.2633961 0.080444746 0.053944588 -0.13995633 0.35069567 0.13328269 0.14429009
0.09438219 0.31906536 -0.26241696 -0.09422818 -0.28554177 0.25959623 -0.10684332 0.048734173
0.052244335 0.47260287 -0.23184018 0.09896991 0.21593231 -0.106716335 0.11567834 0.49013785

sequential_1/dense_4/MatMul f4 [10, 20]
00000000: 91d9 a5be 3bf7 90bd 6ce9 2bbe 8d61 233f
00000010: 5341 2ebd 1a2c 023f 58a3 2a3f 3ea5 2a3e
00000020: 48dc 543f 8e4a ad3d 1f5b 763b c566 333e
00000030: 8e93 243f 616d bb3e 28d1 323f e0d9 7abe
00000040: e5fb a6be 4425 cf3e 1244 e93d 7228 203f
00000050: 56f8 8c3e 7231 083f 1765 3b3f 0e89 7a3e
00000060: 1308 8dbd eaa2 ce3e 125a 2abe 407e 2a3f
00000070: ed80 08be 2368 1cbf 8767 8a3e e505 a8be
00000080: 3735 babe ed99 d5be 735d aa3e cfe0 d83d
00000090: 4e6c 3abd a220 f43d 3fc7 403e f082 8cbe
000000a0: 6ef3 b9bd 015f 343e 16ed 72be 7c8c 2f3f
000000b0: cdca 813e 81b0 723e 2821 04be d5d4 9ebe
000000c0: 526e 4cbe 3338 b33d b8b1 6e3e b90e 1abe
000000d0: 5946 93be 1fe3 343e b6ce 553f c4c2 4fbd
000000e0: 7ead 2dbe c3c6 223f 22c0 aebe 9a10 dcbe
000000f0: b37a 9e3e 1776 99be 9f3f 1abe 4f58 42be
00000100: 3ce9 af3d b354 f9be 72ac c33c cfce cdbe
00000110: fbc9 cabe a117 093f 4640 91be 8e9f 3fbe
00000120: 9425 8b3e ad07 6bbe e478 8f3e 056c 883e
00000130: e655 07be da54 ef3d 39cd 76be 7c33 fa3c
00000140: b2de aa3e 6857 923e 1236 c9be 0e5c 88be
00000150: b364 d3be 375b 9a3d 768f 033e eb72 af3d
00000160: 9724 b83e e4f7 353f e5d6 3e3e 52ec a8be
00000170: 0613 b33e 662b 083f 5ee2 823b 94aa 80be
00000180: 1887 0f3f 393c df3e 75fa c4be 523e 5c3e
00000190: dc16 5bbe 9c1a b23e bce2 00bf 424e af3e
000001a0: 1235 9f3e c37b a93e 1b85 a93e 5f02 3d3e
000001b0: 8b73 cd3e d21a 863e 38b2 d5be 608d 3d3e
000001c0: fce2 093f 638b f13e 7fdf 67be eb9b 9fbe
000001d0: 96fd b0bd 21da e2be 4f3f d93e f488 6f3e
000001e0: 9d23 15be abf3 aebe bba4 87bd d0db 5dbe
000001f0: 0c05 b8be a26d 463e ab10 cebe fefa f0be
00000200: eee3 523e e8f8 84be cf6b 4cbe aaaf abbe
00000210: 5cf0 7a3e 90d0 183e eb04 babe 0119 dabe
00000220: 58d6 603e ae76 0abe 5a2a 8d3c 9af4 a63d
00000230: fae0 dabd f8b6 77bd 43d1 e93e 2e77 9a3e
00000240: 27e2 3c3f fb5a 053f c75c 07be 613a ad3e
00000250: 0fe5 9dbe c3a7 b5be e168 6c3d c046 94be
00000260: 9dca 38bc e8be 68be 4889 173f 0a6d dd3e
00000270: 6510 72bd 44a5 8b3e 426e 4e3e 3805 fbbe
00000280: d67f 263f 5d4e 223f ce67 1f3f 6d84 86be
00000290: 85cb cdbe 6964 b3be 3fbf 48be f215 1e3f
000002a0: 3b28 8abe 6521 0b3e f7d8 d13e d16e 30be
000002b0: ccbd 6bbe 8ead a23d d57d c5be 0e6c 4a3f
000002c0: b601 ea3e 3865 213e 82e0 c4bd 42d2 8dbe
000002d0: 84cd 7f3e a8a2 fe3b d988 8dbe 3fdb 84be
000002e0: 35ae 2abe 95cc ba3b ae0f d03d 3c4e b3bd
000002f0: 42b6 193e 1dfb 04bf 3046 c93c a5ee 043f
00000300: ba9d 7c3e 8acd 073f 0bd5 33bd 0f83 1abf
00000310: 4003 aa3d 8af3 d93d b0d5 df3e 10df e33e
-0.32392552 -0.070784055 -0.16788262 0.63820726 -0.042542767 0.50848544 0.6665549 0.16664597
0.8314862 0.08461486 0.0037590933 0.17519672 0.6428765 0.36606887 0.698504 -0.24497175
-0.32614055 0.4045812 0.113899365 0.62561715 0.27533215 0.5320045 0.73201126 0.24466345
-0.06886306 0.4035867 -0.16635922 0.6659889 -0.13330431 -0.610964 0.2703211 -0.32816997
-0.36368725 -0.41719 0.3327442 0.10589754 -0.045513444 0.11920287 0.18826006 -0.27443647
-0.09079634 0.17614366 -0.23723254 0.6857374 0.25350037 0.23700143 -0.12903273 -0.31021753
-0.19963959 0.087509535 0.23309982 -0.15044679 -0.28764609 0.17664765 0.8351854 -0.050722852
-0.16960713 0.63584536 -0.3413096 -0.42981416 0.30952987 -0.29972908 -0.15063332 -0.18979
0.08589408 -0.48697433 0.02388594 -0.40196845 -0.39607224 0.5355168 -0.2836935 -0.18713209
0.27177107 -0.22952147 0.2802192 0.26644912 -0.13216361 0.11686106 -0.24101724 0.030542128
0.33373028 0.2858231 -0.39299065 -0.26632732 -0.41287765 0.07536929 0.12847695 0.08566841
0.35965416 0.71081376 0.18636663 -0.32992798 0.3497545 0.5319122 0.00399427 -0.2513014
0.5606551 0.43600634 -0.38472334 0.21508148 -0.21395439 0.34785926 -0.5034597 0.34239393
0.31095177 0.33102235 0.33109364 0.18457936 0.40127215 0.26192337 -0.41737533 0.18510962
0.53861976 0.47176656 -0.2264385 -0.31173643 -0.08642118 -0.44307044 0.42431113 0.23392087
-0.14564367 -0.3417028 -0.06623217 -0.21665883 -0.3594135 0.19377759 -0.40247092 -0.47066492
0.20594761 -0.2597115 -0.19963 -0.3353246 0.24505752 0.1492331 -0.36331877 -0.425972
0.21956766 -0.13521835 0.017232109 0.08152123 -0.10687442 -0.060477227 0.45667467 0.30169052
0.7378258 0.5209195 -0.13218985 0.33833602 -0.3083882 -0.35479555 0.057717208 -0.28960228
-0.0112787755 -0.22729075 0.5919385 0.43247253 -0.059097666 0.27274525 0.20159248 -0.4902742
0.6503881 0.6340082 0.6226777 -0.26272908 -0.40194336 -0.35037544 -0.19604205 0.61752236
-0.26983818 0.13586958 0.40985844 -0.17229773 -0.2302162 0.07943259 -0.38572565 0.7907113
0.4570443 0.15761268 -0.09613134 -0.27699476 0.24980742 0.007770855 -0.2764347 -0.25948521
-0.16668017 0.0057006576 0.10159241 -0.087551564 0.15010932 -0.5194567 0.0245696 0.5192664
0.24669543 0.53048 -0.043904345 -0.6035623 0.08301401 0.106421545 0.43717718 0.4450612

sequential_1/dense_5/MatMul f4 [4, 10]
00000000: 59f1 123f 2f3d a1bc 6212 6f3f b046 a3bd
00000010: 5314 18bf 89c2 a1be 498b c9bd b41e 133f
00000020: ce9f fbbd 34f5 47bf e0c2 363f e473 88bf
00000030: cd7a 0dbf bfd5 01bf 6112 59be 3b3c 083f
00000040: b847 93bd 8221 93bd 41d0 50bf 5dbe cd3e
00000050: df09 09be 5554 a33e 16e0 58bf 607e aebe
00000060: b77a 92be 2972 14bf 9a83 083e decc 6c3e
00000070: c3f5 463f 52cd 16bf 4a4a 56be 3f70 72be
00000080: 147b e93e 2352 a43e 4d86 c23e 787c 25be
00000090: 3afb 33bf aa7d d4be e707 243f deb2 32bf
0.5739952 -0.019682495 0.93387425 -0.07972467 -0.5940601 -0.3159373 -0.0984102 0.57468724
-0.1228634 -0.78108525 0.71391106 -1.0660367 -0.55265504 -0.50716776 -0.21198417 0.53216904
-0.07191414 -0.071841255 -0.8156777 0.40184298 -0.13382672 0.31900278 -0.8471693 -0.3408079
-0.2860925 -0.57986695 0.13331452 0.23125026 0.7771875 -0.58907044 -0.20926777 -0.23675631
0.45601714 0.32093915 0.37993088 -0.16160762 -0.70305216 -0.41502124 0.6407456 -0.6980418
