sp_model/point_history_classifier.tflite (tflite, 6432 bytes, 6 tensors)

sequential/dense/BiasAdd/ReadVariableOp f4 [24]
000000 18 d5 be bc fd 1c 00 bd 96 0f a5 bd 3b a0 d7 bd
       -0.02329497 -0.031277645 -0.080596134 -0.105286084
000010 da ac 09 be 1c b0 ca 3d 47 db 90 bd 37 bd 94 bd
       -0.13444844 0.098968714 -0.07073074 -0.07262652
000020 5e e5 20 be bd a3 32 bd 54 b4 b6 bc 79 86 90 bd
       -0.15712497 -0.043613184 -0.022302784 -0.070568986
000030 f9 81 36 bd e5 dd 83 bd 38 f7 1f be 37 4e 35 bd
       -0.044557545 -0.064388074 -0.1562165 -0.044264045
000040 d4 58 ea bc 77 ea 22 bc 09 89 80 bc 95 8a 13 be
       -0.02860681 -0.009943596 -0.015690343 -0.14408334
000050 fa b9 88 bd d8 0f ca bd 3d 23 0e be 88 56 e9 bd
       -0.06676097 -0.09866303 -0.1388063 -0.11393458

sequential/dense_2/BiasAdd/ReadVariableOp f4 [4]
000000 e5 1f 89 3d 4b bf d1 3e 70 89 5d be fe 2a 90 be
       0.066955365 0.40966257 -0.2163446 -0.281578

sequential/dense_1/BiasAdd/ReadVariableOp f4 [10]
000000 e0 d4 74 3b 6d 8d e9 3b 89 9d 71 3b 21 af 9a 3e
       0.0037358329 0.007127455 0.003686758 0.30211738
000010 f3 4d 57 3f 47 b4 4c 3c 4e 2e 04 3a fe f5 79 3f
       0.84103316 0.012494153 0.00050423003 0.9764098
000020 78 0a 12 3f b6 56 bc bd
       0.57047224 -0.09196226

sequential/dense/MatMul f4 [24, 32]
000000 2a 8a 9e be 00 8c e4 3d f7 80 0e 3f 42 ff a1 bf
       -0.30964786 0.111595154 0.55665535 -1.2656024
000010 e4 56 a5 3f 1a 8c b9 bf 8a 24 9b 3f 4e 0f 9c bf
       1.2917142 -1.4495881 1.2120526 -1.2192171
000020 9a 41 a5 3f 9b 0f 1b bf c2 c9 6e 3f fc f3 89 be
       1.2910645 -0.6057069 0.9327661 -0.26943958
000030 01 4c 86 3f 01 c3 54 3e 90 f7 60 3f ce 9a c1 3e
       1.0491945 0.20777513 0.8787775 0.3781342
000040 1b d7 b5 3e da 68 18 3f 72 37 87 3e 67 06 0a 3f
       0.35515675 0.5953499 0.2640949 0.5391602
000050 c8 b3 8c be 6d 34 23 3f 18 92 91 bd d9 35 e6 3e
       -0.27480912 0.6375187 -0.07107943 0.44962958
000060 b7 88 b0 be c8 90 dd 3e bc f9 85 be 21 6d f2 3e
       -0.34479305 0.43274522 -0.26167095 0.47348884
000070 0e 92 e8 be 67 9a b8 3e 53 95 54 bd ae 74 89 bd
       -0.4542393 0.360553 -0.05190022 -0.06711708
000080 00 5e 04 bb c2 3d f7 bd 2b 2c 8a 3d 78 34 5f bf
       -0.002019763 -0.12072326 0.067467056 -0.87189436
000090 d8 07 08 3f 36 2f 8b bf 52 ed 0e 3f b5 b5 ff be
       0.5313697 -1.0873783 0.5583087 -0.4994332
0000a0 6b 73 44 3f 85 a1 3e bd 78 b1 bd 3e 07 95 21 3c
       0.76738614 -0.046540756 0.3704946 0.009862191
0000b0 1a 52 70 bd d4 4b 07 bc b9 4f f2 3d 00 6a 94 3e
       -0.05867205 -0.008257825 0.11831612 0.28987122
0000c0 d3 b5 ab 3e ad 96 63 3e 1b 5b 2a 3e 1e 90 15 3e
       0.33537158 0.22225447 0.16636316 0.14605758
0000d0 89 f9 52 be 75 a9 d2 3d 84 66 d3 3c 3e 1a 09 3d
       -0.20603003 0.102862276 0.02580572 0.033472292
0000e0 2b bd 40 3d 7f d3 6e be 19 6b 6e be 77 78 0b bf
       0.047055405 -0.23322867 -0.23283042 -0.5448069
0000f0 33 29 17 3f 1b fd 5b bf 97 07 1c 3e c8 49 ad bf
       0.5904724 -0.85933083 0.1523727 -1.3538141
000100 c6 33 2d be f4 ca 8d 3d 09 d0 47 bf d0 47 1c 3e
       -0.16914281 0.06923476 -0.7805181 0.1526177
000110 d1 83 b6 be 0c d9 94 3f 92 9f a2 be 1c 04 1c 3f
       -0.35647443 1.1628737 -0.31762367 0.6094377
000120 b5 26 22 bf 60 39 13 3f 3d 6e b5 bd aa b4 eb 3e
       -0.6334031 0.5750942 -0.08858917 0.46036273
000130 78 80 9f be 8e 2f 82 3e 75 97 57 be 56 e8 98 3e
       -0.311527 0.25426906 -0.2105387 0.29864758
000140 a0 ee 2a be dc 1f 7b 3e d9 53 2a 3d ed 81 b1 3d
       -0.1669259 0.24523872 0.04158387 0.086673595
000150 b7 6e 8a 3e 49 b2 39 3e 7b db 79 3e 44 c2 e4 3d
       0.27037594 0.18134417 0.24400131 0.11169866
000160 9f 57 fe 3e 07 b1 8e 3e 43 65 5b 3f f1 cd f2 3d
       0.49676225 0.27869436 0.8570139 0.118556865
000170 94 16 a5 3f df ea 77 3e 2f 7e db 3f 66 eb b5 3e
       1.2897515 0.2421069 1.7147883 0.35531157
000180 58 96 c4 3d 10 8f 86 bc 76 b9 42 be 3d bc c5 bf
       0.09598988 -0.01642564 -0.1901606 -1.5448071
000190 ff 2f d7 3d 7f 26 8a bf fd 66 cb 3e 03 d9 5a bf
       0.105072014 -1.0792998 0.3972701 -0.85487384
0001a0 8c ea 58 3e 7f 39 27 bf 89 7b a4 3e f2 33 04 bf
       0.21183223 -0.6532211 0.321255 -0.5164176
0001b0 f2 dc 99 3e 4b fd 6e be 74 4d 1c 3f 6a b8 3c be
       0.3005138 -0.23338811 0.61055684 -0.18429723
0001c0 d1 82 1f 3f 70 5f 54 3d 51 8a 23 3f 36 2c b7 3d
       0.62308985 0.05184883 0.6388293 0.089439794
0001d0 48 d9 3c 3f 9a 6f 18 3e 97 3a 25 3f 35 35 eb 3e
       0.73769045 0.14886323 0.64542526 0.4593903
0001e0 8e 09 1f 3f c2 5b dc 3e 2f 7d b5 3d b4 16 ec 3e
       0.62123954 0.43038756 0.088617675 0.4611107
0001f0 92 a5 a9 be c2 f0 1c 3f 68 43 42 bd a0 f0 45 3f
       -0.33134133 0.6130487 -0.047427565 0.7732029
000200 f7 d9 53 be 9e 2e a1 be 15 09 82 3f 29 4d 00 bf
       -0.20688616 -0.3148088 1.0159022 -0.5011774
000210 b4 93 a4 3f e4 ad 05 be b3 36 99 3f f6 6a b8 be
       1.2857575 -0.13054615 1.1969818 -0.36019105
000220 41 96 3e 3f 11 ad 90 be 9c 65 29 3f 60 6d 15 3d
       0.7444802 -0.2825704 0.6617067 0.03648126
000230 02 1e f5 3e 84 a0 49 3e 3d 8f ad 3e 32 f2 be 3e
       0.47874457 0.19690138 0.33898345 0.37294155
000240 34 91 92 3e 11 1f d1 3e 08 07 d0 bd 15 b7 13 3f
       0.28626406 0.40844014 -0.10157591 0.57701236
000250 53 89 7e be 74 d0 0b 3f 94 01 be be d0 66 19 3f
       -0.24857073 0.5461495 -0.3711058 0.59922504
000260 71 96 40 be 0a 80 c7 3e 30 d1 1a bf 30 23 a1 3e
       -0.18807389 0.38964874 -0.60475445 0.31472158
000270 f4 8f 1b bf 1d ff 4a 3e dc b8 47 bf ef 3b b7 3e
       -0.6076653 0.1982388 -0.7801645 0.35787913
000280 21 0e 21 be dc d0 62 3e 35 7c b3 bf 77 93 78 be
       -0.15728046 0.22149986 -1.402228 -0.24275003
000290 34 78 91 bf 24 4b 9d 3d 4d a5 ba be a8 2f 9b 3d
       -1.1364808 0.076803476 -0.3645424 0.07577449
0002a0 cf 59 73 be b9 23 cb 3e 1b 0b 01 bf 77 3a 99 3c
       -0.23764728 0.39675692 -0.5040757 0.018704636
0002b0 ce 59 41 bd 84 3c 2d 3e e8 55 bd 3d b2 e1 9a 3d
       -0.047204785 0.16917616 0.09244901 0.07562579
0002c0 07 50 03 3e e8 dc a5 3d d2 f8 2c 3f 3e 04 c6 3d
       0.12823497 0.08098775 0.6756717 0.09668778
0002d0 3e 27 5a 3f a2 e5 6c 3d ae c5 80 3f 62 fc 3d bd
       0.8521613 0.057836182 1.0060327 -0.04638327
0002e0 58 c3 4e 3f b9 75 e3 3c 8a e3 a4 3e 7f 46 8b 3e
       0.8076682 0.027766095 0.3220485 0.27202222
0002f0 71 50 38 3c 35 14 00 3f 39 64 4d bf 56 b8 37 3f
       0.0112496475 0.50030833 -0.8023105 0.7176565
000300 68 2c 9f 3e e4 14 72 3e 43 44 dc be b1 a4 c0 3f
       0.31088567 0.23640782 -0.4302083 1.505026
000310 d5 e7 cd be e8 4c 85 3f 4a 81 a4 be e8 75 5f 3f
       -0.40215936 1.0414095 -0.3212989 0.87289286
000320 ad 7f cf be 25 b3 19 3f bc cc bf be be f0 be 3e
       -0.40527096 0.6003898 -0.37460887 0.37293047
000330 6e b7 19 bf 6c eb 20 3d 60 36 4d bf 39 4d 38 be
       -0.60045516 0.039287016 -0.80161095 -0.17998208
000340 40 de 33 bf f5 74 a4 be 16 fa 06 bf 06 4f 46 be
       -0.70261 -0.3212048 -0.5272535 -0.19366083
000350 09 a8 e6 be 15 3d 9e be 3c 06 31 3c 0f bf 0e bf
       -0.45050076 -0.30905977 0.010804709 -0.5576028
000360 cc 28 c2 bd 46 04 f8 be ab 27 22 3e e5 72 1e bf
       -0.09480438 -0.4844076 0.15835445 -0.61894065
000370 55 d9 5c 3e 7c 60 db be 6a e3 10 3f b8 a7 00 bf
       0.2156728 -0.4284705 0.56597006 -0.5025592
000380 be 7b 1f be a8 c9 59 3e b8 22 a0 bf 83 b4 ba 3f
       -0.15574548 0.21268332 -1.2510595 1.4586338
000390 86 0b be bf 91 48 9e 3f 6f db 55 bf c3 a0 9b 3f
       -1.4847267 1.2365896 -0.83537954 1.2158436
0003a0 78 5e 14 be aa a7 68 3f 3f e5 d3 bd 64 39 6d 3f
       -0.14489162 0.90880835 -0.103464596 0.92665696
0003b0 db 67 ba 3e 42 4e 11 3f f0 83 cf 3e 73 03 cb 3e
       0.3640736 0.56760037 0.40530348 0.3965107
0003c0 dc 30 27 3f f6 9e 1e 3d 1a 81 39 3f 81 e8 08 be
       0.6530893 0.038725816 0.7246262 -0.13369943
0003d0 8f 14 2c 3f 5a 7c 5d be bf 87 13 3f 5f 43 9b be
       0.6721887 -0.21629468 0.5762901 -0.30324838
0003e0 be b4 c3 3e f9 41 3c be a5 00 9b 3e 37 66 52 bd
       0.38223833 -0.18384542 0.3027393 -0.05136701
0003f0 59 46 c8 3e e0 3c b0 3d fd f6 db 3e 6e 95 77 3e
       0.3911617 0.08605361 0.42961875 0.24178097

sequential/dense_1/MatMul f4 [10, 24]
000000 3e 40 51 3e c3 54 9c bd df 77 dd 3d d1 49 40 bf
       0.20434663 -0.076333545 0.10813879 -0.75112635
000010 04 d8 b9 3c 7e 84 f6 bd 4e f1 05 3f 13 57 f8 3e
       0.022686012 -0.1203699 0.52321327 0.48503932
000020 94 ac 68 3e dd f1 18 3d c6 1c 95 be 71 04 a3 3e
       0.22722083 0.037340034 -0.29123515 0.31839326
000030 2e 80 40 3d 3a a4 de bd 67 e4 2d be 56 f6 07 3f
       0.04699724 -0.108711675 -0.1698166 0.53110254
000040 4a 2c 04 3f e6 7f 9e bf b8 62 99 bf 0f 35 36 bf
       0.5163008 -1.2382782 -1.1983252 -0.7117471
000050 a5 ae a7 be a3 38 11 3d 36 bb 09 bf 44 73 f8 3d
       -0.3275043 0.035454404 -0.53801286 0.1213136
000060 c1 7a df bd 0b 45 98 3f 26 89 29 3f 92 e0 50 3e
       -0.10912085 1.189607 0.66224897 0.20398167
000070 87 3d 89 3c 55 90 a3 3d 15 8f 58 3f fd b5 6b 3e
       0.016752971 0.079865135 0.84593326 0.23018642
000080 d1 e7 77 3f c3 36 f3 be e4 ec 23 3d 46 e2 f6 3d
       0.968381 -0.47502717 0.04002084 0.12054877
000090 08 cd ff 3e 1b 83 50 3f 3c a4 68 3f 79 1f 44 3f
       0.49961114 0.8145005 0.908756 0.76610523
0000a0 f2 69 56 3f 01 d5 4f bd aa 47 c7 3e b8 20 4e 3f
       0.8375541 -0.050740246 0.38921863 0.80518675
0000b0 85 1e 66 3f d9 80 75 3f 87 75 83 3e 5e dd 20 3f
       0.8989032 0.9589973 0.25675604 0.6283778
0000c0 0d 64 80 3f 96 e7 8c be a0 45 08 3f a9 62 19 3f
       1.0030533 -0.27520436 0.5323124 0.5991617
0000d0 82 ba 41 3f 2b 6e 8c 3e 6a 0b 3c 3f 9e 36 82 bd
       0.75675213 0.274278 0.73454916 -0.06358074
0000e0 b6 c5 5b bf a8 a8 5c 3f b5 67 d2 3f a1 40 12 3f
       -0.8584856 0.8619485 1.6437899 0.57129866
0000f0 d3 4b 4c 3f 66 18 5d 3f fd 90 a3 bf 82 84 ca 3e
       0.798032 0.86365354 -1.2778622 0.3955422
000100 14 98 69 3f 97 d8 4b 3f 4f b3 67 3d c2 80 67 bf
       0.9124768 0.79627365 0.056567486 -0.90430844
000110 b6 b4 e3 bd 07 16 06 be b6 54 31 3f 31 95 2e 3f
       -0.11118452 -0.1309434 0.69269884 0.681964
000120 b1 fa 94 3f e5 27 6b 3f a5 f6 9f 3e 35 1c 8e 3f
       1.1639005 0.9185775 0.31242862 1.1102358
000130 9e c0 9a 3f 0a b2 90 3e 96 66 41 3f 30 95 8b 3e
       1.2090032 0.28260833 0.7554716 0.2726226
000140 35 12 db 3e 16 66 8b 3f 69 c6 f6 3d 59 80 0a 3f
       0.42787328 1.0890529 0.120495625 0.54102093
000150 86 82 7d 3f ce fc 64 3f 6f 96 ff be 57 15 88 3f
       0.9902729 0.8944825 -0.4991946 1.0631512
000160 91 0e d4 3e 99 c3 a9 3e f4 c8 d3 3e 8b 9b b7 be
       0.41417363 0.33157042 0.41364253 -0.35860857
000170 3b 7c 1e 3e d4 46 c8 be 39 bb 8a 3f ec 63 8e 3f
       0.15477078 -0.39116538 1.0838386 1.1124244
000180 54 6d 01 c0 1a c6 13 bf 7b b9 fa be e4 de 0a 3f
       -2.0222979 -0.57724154 -0.48969635 0.54246354
000190 db bb 3f 3f 04 be 2c 3f 9f df 25 bd 88 81 30 bf
       0.7489602 0.6747744 -0.040496465 -0.6894765
0001a0 a2 05 87 bf 9f 99 d1 be 1d 52 9c bf ff ce c7 be
       -1.0548594 -0.40937516 -1.2212559 -0.39025113
0001b0 5f a4 ae be 22 1b b9 bd b0 78 9e bf a2 30 ef 3d
       -0.3410978 -0.09038378 -1.2380581 0.11679198
0001c0 1f b4 60 3e 74 cf 02 be 67 d7 f7 be 04 ee ab bf
       0.2194371 -0.1277445 -0.48406526 -1.3432012
0001d0 70 18 30 bf b2 39 91 bf 7f e9 ae 3e e9 5a f8 3d
       -0.6878729 -1.1345732 0.34162518 0.12126715
0001e0 b4 01 03 3f 6d 94 ce 3e be 6a 36 bf 35 1a f4 3e
       0.51174474 0.40347615 -0.71256626 0.47676244
0001f0 56 62 9a 3d af 07 67 bd 20 91 93 bd 9f 82 dd bf
       0.07538287 -0.056403812 -0.07205415 -1.7305487
000200 3f 6c 98 bf 16 21 e8 bd 9a 4e 4e bf 05 18 a0 be
       -1.1908034 -0.11334436 -0.80588686 -0.31268325
000210 f4 14 eb bd ee 87 69 3f 79 8e ce 3e a1 17 c7 3e
       -0.11478606 0.9122304 0.40343073 0.38885215
000220 e1 8b 1e bf 25 75 99 3f e9 63 22 3f be 90 58 bf
       -0.6193219 1.1988875 0.634337 -0.8459586
000230 64 44 46 3e 5f 35 76 3e 1b 5d fd 3e 51 86 16 3f
       0.19362026 0.24043797 0.49485096 0.587987
000240 d8 b5 47 3e d2 82 9a 3f 2a 75 ac 3f e3 a8 db 3e
       0.19502962 1.2071173 1.3473256 0.42902288
000250 61 b1 a2 3e 15 c0 fc 3e 05 55 16 3f 05 b7 ba 3f
       0.31775954 0.49365297 0.5872348 1.4587103
000260 b3 6d b2 3f fb df 81 3f a2 7e 40 3f 15 1b 7d 3f
       1.3939728 1.0146478 0.75193226 0.9886945
000270 f2 35 61 3f 72 1b f6 3e f6 6c 99 3f b5 48 80 3f
       0.8797294 0.48067814 1.1986377 1.0022188
000280 0c ea 70 3f b0 39 ac 3f fa 8e a4 3f e4 42 b8 3f
       0.9410713 1.3455105 1.2856133 1.4395413
000290 29 3f 90 3f 7f 45 97 3f b7 67 0f 3e 4a c0 15 3f
       1.1269275 1.1818084 0.14004408 0.58496535
0002a0 7a 96 f8 be 6f 3d 69 bc 96 76 cb 3e 5f 80 07 bf
       -0.48552305 -0.014235838 0.3973891 -0.52930254
0002b0 d9 73 f6 be 72 73 4e 3e 43 e7 4f bf 11 ec 96 3e
       -0.4813526 0.20161226 -0.8121225 0.2947698
0002c0 18 92 08 3f 7b 0a e9 be bb b6 05 bf 61 93 4b 3f
       0.5334792 -0.45515808 -0.5223195 0.7952176
0002d0 13 ab 5a bf ed ce 25 bf eb d4 5e 3f 4e c4 07 bf
       -0.8541729 -0.6476887 0.8704364 -0.5303391
0002e0 51 13 fb be bf aa 72 bd 86 2f 43 3e 82 98 6f 3f
       -0.49038175 -0.059244867 0.19061098 0.93592083
0002f0 27 96 a2 3e 8e 24 48 be 73 e9 3b bf 72 93 57 bf
       0.31755182 -0.19545195 -0.7340309 -0.8420936
000300 8c d3 8d bf 62 5f 87 bf f6 2d 83 bc 79 21 a8 bf
       -1.1080184 -1.0575984 -0.016013127 -1.3135215
000310 e6 99 7c bf 14 0f 37 3f 68 77 4c bf fe a5 49 3d
       -0.9867233 0.7150738 -0.798697 0.049230568
000320 36 3b 9c 3e c4 71 e4 bd 7a 4d cb 3e ab d8 66 3e
       0.30513924 -0.111545116 0.39707547 0.2254359
000330 a6 3d 88 bf 47 d2 9e bf 5b 7b 27 3f 6d 8d 4a bf
       -1.0643814 -1.2407922 0.654226 -0.7912205
000340 b1 8d 07 bf 1b 1b 30 c0 ef 09 18 c0 35 12 a3 3d
       -0.5295058 -2.7516544 -2.3756063 0.07962457
000350 fc fd 0d c0 a3 fd f6 be 9d 1d ad bf 72 3d a2 bf
       -2.218627 -0.48240384 -1.3524662 -1.2675002
000360 f4 c0 7c 3e 1e f6 da 3d ba 8c 7f 3f 46 4c dd 3e
       0.24682981 0.106914744 0.99824107 0.43222255
000370 84 a3 12 3f 05 ae dc 3e 23 42 23 bf f0 14 49 3f
       0.57280755 0.43101516 -0.6377279 0.78547573
000380 55 a9 d7 3d 55 51 3c 3f 5b ae a6 be 79 f1 a7 3f
       0.105303444 0.735616 -0.32554898 1.3120567
000390 80 db 50 be 5e 58 3c 3e 9b cb 7f 3f b2 bd 6a be
       -0.20396233 0.18393084 0.9992005 -0.22923926
0003a0 79 76 06 bf 24 1b c9 b9 7b 7a 0d bf bf 56 d5 3d
       -0.52524525 -0.0003835793 -0.55265015 0.10416936
0003b0 c4 08 55 be 19 20 5a 3f 58 11 34 3f f9 77 d5 3d
       -0.20804125 0.8520523 0.70338964 0.104232736

sequential/dense_2/MatMul f4 [4, 10]
000000 8e 9a 51 bf 7d d7 76 c0 e5 03 72 c0 1e 5b 4c c0
       -0.81876457 -3.8569024 -3.7814877 -3.1930614
000010 93 40 ec 3f 84 6f 27 c0 60 b6 84 c0 d8 99 2e 3f
       1.8457206 -2.6161814 -4.1472626 0.68203497
000020 35 6d 0c 40 03 bc 68 c0 09 d3 ae 3f 39 7c af be
       2.1941655 -3.6364753 1.3658153 -0.34274462
000030 eb 86 63 3f 32 d8 08 3f f8 72 38 3f 16 ca a4 3f
       0.88877743 0.5345489 0.7205043 1.2874172
000040 f7 e0 1e bf 62 3a 08 c0 00 42 a4 bf 34 b4 7a bf
       -0.6206202 -2.1285634 -1.2832642 -0.9793122
000050 8d f1 d8 3e b9 69 8b 3d da 99 e8 be e0 32 12 bf
       0.4237179 0.06807274 -0.4542988 -0.5710888
000060 2d d7 0e c0 8c 7a 8d 3f 2c 48 69 3f 5b f5 69 3f
       -2.2318833 1.1053023 0.9112575 0.9139001
000070 c1 ec eb 3e a9 8a 52 be c4 37 98 bf e1 b9 9b 3f
       0.46079066 -0.20560707 -1.1892018 1.2166101
000080 95 fd ca be dd ff 0a 3f c1 70 09 bf 2d c3 88 be
       -0.39646593 0.54296666 -0.53687674 -0.26711407
000090 a9 ad 0f 3e 8e 73 0f be 8c 18 a1 bf 27 45 53 3f
       0.1403109 -0.14008924 -1.2585616 0.82527393
